myFirstModel.pth (torch, 113529 bytes, 32 tensors)

conv1.weight f4 [12, 3, 7, 7]
000000 14 17 19 bc 95 55 88 bb 55 4a 69 bd f0 21 a3 3d
       -0.009343881 -0.004160593 -0.056955654 0.079654574
000010 44 d1 7a 3d 20 fc fb bc af ca 2e bd 58 3a af 3c
       0.061234728 -0.030759871 -0.042673763 0.021390125
000020 6c a2 6f 3d c7 46 cf bc 68 91 23 bd 5e a1 9f 3c
       0.058504507 -0.025302304 -0.039933592 0.019486126
000030 ee 6d 38 bc 59 5f 32 bd 26 4f 8a 3c 02 e3 0c 3d
       -0.011256678 -0.04354796 0.016883444 0.03439618
000040 05 29 f4 bc 12 cd 1f 3d b7 a7 eb bc 88 29 68 bd
       -0.029804716 0.03901393 -0.028766496 -0.056680232
000050 ce ff 32 bd 11 4d 95 bd c1 09 96 bd c8 1e b2 3c
       -0.043700986 -0.0729009 -0.07326079 0.021743193
000060 38 40 94 bd 5d 45 0d 3d 78 82 0b 3c 45 57 91 3c
       -0.07238811 0.034489978 0.008514993 0.017741809
000070 84 8a a3 3b eb a5 55 bd 23 bb a2 bd 0a cf f1 bb
       0.0049908776 -0.052160185 -0.0794585 -0.0073794173
000080 5f 96 9a bd cb c8 b1 3c fe db ca bd 77 31 90 3b
       -0.07548212 0.02170219 -0.099052414 0.004400428
000090 6b 28 79 3d 23 6d 84 3c 75 58 b5 bd f2 97 c0 bc
       0.06082956 0.016165322 -0.088547625 -0.023509953
0000a0 55 6e 59 bd 2d b3 e9 bc 50 d2 ba 3c 03 91 31 bc
       -0.053083736 -0.02852782 0.022805363 -0.010837796
0000b0 23 ed ac bd a4 2e 22 bd 6a a3 07 3d 4a e5 a0 bd
       -0.08443668 -0.03959526 0.03311483 -0.078562334
0000c0 b9 88 69 bc 6a c2 56 3d 74 08 48 bd 95 39 bf bc
       -0.014253789 0.0524315 -0.048836187 -0.023342887
0000d0 22 68 95 bb 8c f7 ac bd 46 01 40 bc b7 69 96 bd
       -0.0045595327 -0.08445653 -0.011719054 -0.07344382
0000e0 a0 2a 4f 3d e5 d6 83 3d 66 48 a1 bd 6b f5 a7 3c
       0.05057776 0.06437472 -0.07875137 0.020502767
0000f0 a2 e0 bc bd a7 0d 1f bd fd a7 25 bd c2 81 02 bd
       -0.09222533 -0.03883138 -0.04044341 -0.031862028
000100 51 22 27 bd 2f 07 25 3c 1c db a3 bd 30 75 da bd
       -0.04080421 0.0100725135 -0.08000776 -0.10666883
000110 74 2c 81 bd 52 12 de bd b1 f2 04 bd 32 12 11 3b
       -0.06307307 -0.10843338 -0.03245801 0.002213609
000120 0c ce dd bd 45 ee 22 bd 9f 81 c2 bd 39 17 02 be
       -0.10830316 -0.039778013 -0.094973795 -0.12704171
000130 86 9d 23 be 97 f3 f6 ba d6 19 8e bd f4 27 a6 bd
       -0.15978059 -0.0018840906 -0.069385216 -0.08113089
000140 41 d2 1a bd be 80 81 3c 67 a2 d4 bd a8 7a 6b bc
       -0.03779817 0.01580846 -0.10382538 -0.014372505
000150 58 17 c8 bd 49 38 01 3d 3f 57 a6 3b 19 5b 9d bc
       -0.097700775 0.03154782 0.0050763185 -0.019208478
000160 83 b1 4c bd 42 9f b4 bd 5c f6 4f 3a 0e 62 ac bd
       -0.049973976 -0.088194385 0.0007933134 -0.0841714
000170 a2 74 86 bd dd 04 79 3c da 84 7d 3c 56 34 b4 bd
       -0.06565215 0.015198913 0.015473569 -0.08799045
000180 ed be f0 bd 44 ed a8 bd 00 77 86 3d f6 49 90 3b
       -0.11755166 -0.0824838 0.06565666 0.004403348
000190 4c 51 10 bc 7e 36 23 3d e3 3b 9e bc ac 9c e5 bc
       -0.008808445 0.03984689 -0.019315666 -0.028028809
0001a0 2a e3 78 bd 73 df 4d b9 cf 82 0f 3e 7b 94 c9 3d
       -0.060763516 -0.00019633565 0.14014743 0.098427735
0001b0 d7 6c 48 3c 70 4f ad 3d 64 84 8d 3c 6d fd d8 3c
       0.012232981 0.08462417 0.017275043 0.02648803
0001c0 4a db 91 3d 9b 27 d3 bc d1 1e 7f bc 30 e6 6c 3d
       0.07121904 -0.025775721 -0.015571312 0.05783671
0001d0 dd 7d ae bc bb 79 0e 3d e5 e3 e3 3b 8e 13 53 3c
       -0.02130025 0.03478406 0.0069546574 0.01288308
0001e0 b8 cb 0c bd 5a 7e 91 bd ba ff 04 3c f4 21 9f 3d
       -0.03437397 -0.07104178 0.008117611 0.07770148
0001f0 d4 cd a7 3b 98 e2 32 bd 79 1e 97 3c 60 8e 56 3d
       0.005120972 -0.043673128 0.018447148 0.052381873
000200 a6 ed 97 bd 38 b3 e6 3c 60 90 96 3c 0c 84 6a 3d
       -0.07418375 0.02816163 0.01837939 0.057254836
000210 57 1a 2e 3c 1d ac 2e bd db e5 5f 3d 30 40 88 3c
       0.010626397 -0.04264461 0.054662567 0.01663217
000220 51 79 31 3d 5f b8 a2 3d b7 28 a8 3d 88 53 80 3c
       0.043328587 0.07945322 0.08210891 0.01566483
000230 09 40 de 3d 58 5f 30 3d 14 3f 0f 3d de d4 d6 bc
       0.108520575 0.043059677 0.034972265 -0.02622455
000240 f8 27 50 bd 30 11 b7 3c 82 b7 a2 3b cb fd 7d 3d
       -0.050819367 0.022347063 0.0049657235 0.062009614
000250 ea c1 83 3d 89 21 0c bd 33 66 4e bc e5 21 12 bd
       0.064334705 -0.03421167 -0.012597608 -0.035676856
000260 db 0d b6 bc 9d a5 9c bc 71 0e db bc 69 7d ea 3c
       -0.022223404 -0.01912194 -0.026740285 0.028624253
000270 2a 45 4e 3d 79 16 86 39 86 9c c6 bd 8a 4b 83 bd
       0.05035893 0.00025575215 -0.09697823 -0.06410892
000280 1a 8c 2b bd 40 22 4c bc be 80 85 bc b3 13 f9 bc
       -0.041881658 -0.012459338 -0.01629674 -0.030404901
000290 9e bb b4 bd 1c 6a 58 3b d2 66 44 b9 1f d3 15 be
       -0.08824848 0.003302223 -0.0001873032 -0.14631318
0002a0 e8 93 d4 bd af 3a 72 3c dd 99 2c 3d 02 93 b6 bd
       -0.103797734 0.014784499 0.042138923 -0.08914758
0002b0 9d ab d7 bd 9c 01 3c bc 0d 59 f9 bd d7 f4 07 bd
       -0.105307795 -0.011474993 -0.12175188 -0.03319248
0002c0 65 d4 d4 bb e4 9a 3b bd c6 af f8 3c 6b 33 b0 bd
       -0.006495046 -0.045802012 0.030357253 -0.08603557
0002d0 8d ed c6 bd da 2d bb bd 3e 3c 64 bb 2a 9d 96 3c
       -0.09713278 -0.09139605 -0.0034825946 0.018385489
0002e0 98 68 98 bd 9b 30 5b bc 03 55 a3 bd 68 00 ea bb
       -0.07441825 -0.013378288 -0.07975199 -0.0071411617
0002f0 70 03 87 bd 42 d6 a8 bd 51 64 5b 3d 3e ad 1c bd
       -0.065924525 -0.082439914 0.053562466 -0.038251154
000300 ca fe 2f bd 21 f3 10 bc 34 9e b0 3a 73 1a bf bc
       -0.042967595 -0.008847029 0.0013474883 -0.023328042
000310 73 93 14 3e c6 39 1d 3e ad a0 19 3e 04 54 9f 3d
       0.14509372 0.1535407 0.15002699 0.077796966
000320 a3 08 85 3d 17 93 51 3d fc 36 53 bd 63 40 01 3e
       0.06495788 0.051165666 -0.05156611 0.12622218
000330 0e 23 04 3e f5 29 24 3e 8a 87 0b 3e ea 6b 03 3e
       0.12903997 0.1603163 0.13625923 0.12834135
000340 8e bf 70 3d 73 6c 58 bd da 0e 4d 3d 96 57 70 3c
       0.05877643 -0.0528378 0.05006299 0.01466932
000350 be 41 f5 3d fd 75 b5 3d 9d 78 0a 3d f9 bc fa 3c
       0.1197543 0.08860395 0.033806432 0.030607687
000360 49 6e 2b 3d 0a 2a d7 3d a0 cf 85 3d 0e 24 dc 3d
       0.041853223 0.10506065 0.06533742 0.107490644
000370 67 4b b4 3d 74 93 60 38 f7 2c 12 bd 9c aa 56 bd
       0.08803444 5.3543088e-05 -0.035687413 -0.0524088
000380 f6 ab f9 3c 0a ba 0c 3e ba fb 8e 3d 6d 19 74 3d
       0.030477505 0.13742843 0.06981607 0.05959456
000390 47 5f 65 bb c3 e9 96 bc b2 39 8e bc d0 42 f0 3d
       -0.0034999417 -0.018422013 -0.017361496 0.117314935
0003a0 90 0e 61 3d aa c7 0f 3d 09 8f 83 3d cd 63 8c 3d
       0.05494553 0.035102524 0.06423766 0.06854973
0003b0 22 be 61 3c 17 4f 3d 3d 2e 20 f3 3d 26 5f ae 3d
       0.013778241 0.046218004 0.11871372 0.08514242
0003c0 f0 03 0e 3c 26 8c 0a bd f5 48 27 3d 93 48 30 bd
       0.008667931 -0.033825062 0.04084106 -0.043037962
0003d0 7c 11 af bc 51 4d 12 3c 7e 28 dd 3d 06 ac 1a 3b
       -0.021370642 0.0089295665 0.10798739 0.002360107
0003e0 5d 9d 99 3d 3c f2 3c bc 28 44 2c bc 6a 87 54 bd
       0.07500718 -0.011532363 -0.010514297 -0.051886953
0003f0 a9 34 8e 3d a6 f8 90 3c c7 4e e3 3d 17 86 ab 3d
       0.06943638 0.01769669 0.1109901 0.08375185

conv1.bias f4 [12]
000000 72 8a 3d 3c 22 62 be bd 9b eb aa bd e3 29 43 3b
       0.0115686525 -0.09296061 -0.083457194 0.0029779605
000010 0b f1 2e 3d 2e d9 00 bd 43 e3 ff bd 58 54 af bd
       0.042710345 -0.03145712 -0.124945186 -0.08561009
000020 60 bd c3 bd 24 15 37 be 32 b7 7b 3d ec 1b 5c bd
       -0.09557605 -0.17879158 0.061454006 -0.053737566

bn1.weight f4 [12]
000000 dc d2 70 3f 3e 85 7e 3f 6c f7 8c 3f 15 8f 69 3f
       0.94071746 0.9942206 1.1013007 0.9123395
000010 91 25 72 3f e6 4a 6b 3f 8f e4 65 3f 9a cf 6b 3f
       0.9458857 0.9191116 0.8980188 0.9211365
000020 79 1a 82 3f 04 e1 76 3f 2d 4c 6c 3f 76 9c 74 3f
       1.0164329 0.96437097 0.92303735 0.9555124

bn1.bias f4 [12]
000000 69 08 de 3c f2 db 84 bd 45 6a aa bd ee 25 74 bb
       0.02710362 -0.06487264 -0.083210506 -0.0037254053
000010 61 a7 3f 3d 66 33 8a bc b3 7c a3 bd bf d9 da bd
       0.046790484 -0.016870212 -0.07982769 -0.10686063
000020 76 bd 5b bd 24 28 3d be e7 c6 bd 3d 97 54 29 bd
       -0.05364748 -0.18472344 0.09266453 -0.041340437

bn1.running_mean f4 [12]
000000 e9 11 09 bf bb 11 e5 3e 17 03 10 be 65 6c 8c be
       -0.53542954 0.4474009 -0.14063679 -0.27426448
000010 cb a4 a7 be e8 11 b7 3e e0 5e 4a 3e 82 1d d0 3e
       -0.32742915 0.3575585 0.19762754 0.40647513
000020 05 0e b6 be 35 a8 71 be 75 9a e8 be 3e 57 dd 3e
       -0.3555757 -0.23599322 -0.4543034 0.43230623

bn1.running_var f4 [12]
000000 99 02 0d 40 65 5f b4 3f 6a 27 82 3e 98 81 f3 3e
       2.2032835 1.4091612 0.25420696 0.4755981
000010 0a 59 1d 3f 24 fb 81 3f 18 1e 04 3f 59 f3 a6 3f
       0.6146399 1.0154767 0.5160842 1.3043014
000020 09 c4 98 3f 7b 64 82 3e 57 f8 f4 3f 35 01 b6 3f
       1.1934825 0.25467286 1.9138287 1.4219118

conv2.weight f4 [12, 12, 7, 7]
000000 d8 20 5e bd 63 2a 30 bd b6 17 43 bc 3b 31 38 3c
       -0.05423054 -0.043009173 -0.011907509 0.011242206
000010 de e6 c2 bc d8 33 59 bc 8e e2 1d bd ab 3d e1 3c
       -0.023791727 -0.013256989 -0.038546138 0.027495226
000020 be 44 c1 3b d1 bb 34 3c 92 4f f9 ba a3 81 33 bc
       0.0058980873 0.011031107 -0.0019020906 -0.010956201
000030 22 39 02 3c d0 ef 66 3c 73 ce 0b 3c b3 60 1b bc
       0.007948192 0.014095262 0.008533108 -0.009483504
000040 93 be 33 3d 7c 3c 6e 3c 78 33 3e 3b 20 03 79 3c
       0.043882918 0.014540788 0.0029022377 0.015198499
000050 9c 01 82 3c e7 74 f8 3c 3f ce 04 3d f0 b6 7f 3d
       0.015869908 0.03032918 0.032423254 0.062430322
000060 95 3c 98 3d 38 46 66 3d 19 c4 55 3d d0 5b 83 3d
       0.0743343 0.05621931 0.052188966 0.06413996
000070 b9 81 a1 bc 47 f9 a7 3b 22 82 15 bc 08 47 6f 3d
       -0.019715177 0.0051261517 -0.009125264 0.05841735
000080 ef af df 3b c6 bc 86 3c 5c 1b 6e 3d 5a 36 88 3b
       0.006826393 0.016447436 0.05813156 0.00415687
000090 9e 71 e6 bc c2 7d b8 3b 4f d1 c5 3c f9 fd c7 3c
       -0.028130349 0.005630226 0.024147658 0.024413096
0000a0 c9 06 82 3d 4f 35 57 3d 58 2a 19 3c a4 d2 fc 3b
       0.063489504 0.052541073 0.009348474 0.00771554
0000b0 6f 82 93 3c 00 68 b3 bc 70 d3 84 3c eb 6a 76 3d
       0.018006532 -0.021900177 0.016214103 0.06016056
0000c0 2f f8 38 3d 5d 1d 73 3d 7a 2d b9 3d 0c 1a b3 3b
       0.04515856 0.059354175 0.09041877 0.0054657515
0000d0 9c 7e 42 bd f0 df ea 3c d7 98 37 3d 52 67 53 bc
       -0.047484025 0.028671235 0.044823494 -0.012903051
0000e0 b1 e9 0d bd ff 45 12 bc 7f e0 19 3c 1e 69 ca bc
       -0.034646694 -0.008927821 0.009391903 -0.024708327
0000f0 7f c4 74 bc f8 bb 37 bd 80 a5 24 bc 2f e9 9b bb
       -0.014939426 -0.044856995 -0.010049224 -0.0047580223
000100 76 5d 00 bc 1a 43 e2 bb 5a b6 80 bd 36 ae cc bd
       -0.007834783 -0.006904972 -0.06284781 -0.099941656
000110 02 17 8a bd b3 45 24 bd ca 51 91 bc 4f 53 c9 bc
       -0.0674267 -0.040105533 -0.017739195 -0.024575857
000120 4b 4a 58 bd c3 1f b4 bd c6 b4 c5 bd c9 79 b2 bd
       -0.052805226 -0.087951206 -0.096536204 -0.08714635
000130 00 ed a1 bd 22 7a 9a bc 4d 5f b0 3b 63 c1 55 bd
       -0.07906532 -0.018857066 0.0053824545 -0.05218638
000140 bb 7c 86 bd ea 0f 86 bd b9 de c1 bd 82 dd 80 bd
       -0.06566759 -0.06546004 -0.09466309 -0.06292249
000150 93 90 da 3c 43 1f c9 3b 0f d4 c2 bb 89 2e 35 bd
       0.026680266 0.00613776 -0.0059456895 -0.044233833
000160 05 11 33 bd 3f 53 55 bc fd 41 70 bd 92 a4 2f 3d
       -0.043717403 -0.013020336 -0.05865668 0.042881556
000170 10 4d f1 3c 35 81 9c bc f6 d1 09 bd a6 28 10 bd
       0.029455692 -0.01910458 -0.0336475 -0.035195015
000180 ef 64 9d bd e3 70 b7 bd ff 15 24 bc b7 2e 7d bd
       -0.07685267 -0.08957078 -0.01001501 -0.06181213
000190 d1 ab d5 3b 70 7a ba 3d 3d 6b 0e bc ca 87 75 bc
       0.0065207263 0.09105384 -0.00869256 -0.014985988
0001a0 5f c4 86 bd 0d 77 64 3d 33 dc 06 bd 14 75 90 bb
       -0.065804236 0.0557776 -0.032924842 -0.004408488
0001b0 a3 f8 53 3d cd 0d 8c bd ae d0 3c 3c 45 b3 16 bc
       0.05175079 -0.0683857 0.0115243625 -0.009198015
0001c0 1d c2 0c 3d 49 17 58 3d db 72 74 3c 75 2f ac 3c
       0.03436481 0.05275658 0.014919962 0.021018723
0001d0 50 0f c5 3b 09 23 1f bd 40 d2 cd 3c 20 42 a8 3d
       0.0060137883 -0.03885177 0.02512467 0.08215737
0001e0 7d 50 98 3d 4f 6c 79 bc 7d 65 47 3d 50 06 a9 3c
       0.07437227 -0.015223577 0.04868077 0.020632893
0001f0 5d 88 2a 3d be 98 d5 3c 71 69 ca 3c c6 af 68 3c
       0.041633952 0.02607381 0.024708482 0.014202064
000200 52 64 33 3d 9a 43 04 3d 95 7f 1d 3d 6f 5f 09 3d
       0.043796845 0.032291032 0.03845175 0.03353828
000210 8e a2 01 bc f0 d8 f6 3a ba ec c3 bb 75 04 ab bc
       -0.007912291 0.0018832963 -0.0059791477 -0.020876149
000220 fc 32 80 3d 1e 90 75 3d d3 02 04 3d 3f 66 ce bc
       0.062597245 0.059951894 0.032229256 -0.02519524
000230 68 a9 2e bc 42 0f ac 3c 9a e5 1f bd 4c f7 be 3d
       -0.010660507 0.02100337 -0.039037324 0.09324512
000240 be a5 ba bb 99 a5 c3 3c c3 07 31 bc a7 3a 63 3c
       -0.0056960275 0.023882674 -0.010805073 0.013868964
000250 cd 5f 2f bb 4e 9b 3a bd 46 8f 30 bc 8a 98 55 bd
       -0.0026759983 -0.045558266 -0.010776347 -0.052147426
000260 72 1c a0 bd 0e f8 00 bd e5 09 0b 3d b2 94 e2 bc
       -0.078179255 -0.031486563 0.033944983 -0.027658794
000270 8b ce 02 3d 7e 5b 39 3d b2 ba 5e bb 4e 57 fc 3b
       0.031935256 0.04525327 -0.003398579 0.007700837
000280 a5 21 8e bb cd 52 9b 3c 55 bb 2b bb 9d 51 3a 3d
       -0.004337507 0.01896038 -0.0026204188 0.04548799
000290 64 b4 94 3c 0a 34 4e bc da 99 02 3c e9 91 40 3d
       0.018152423 -0.012585649 0.007971251 0.04701415
0002a0 58 b5 49 3d b5 c6 8a 3c 53 bd 90 3d 88 c1 78 3d
       0.04924521 0.016940454 0.07067361 0.06073144
0002b0 4b d2 51 3d f9 83 d9 bb 76 19 27 3d df ae 1b bd
       0.05122594 -0.006638047 0.040795766 -0.038008567
0002c0 a6 42 ef ba 78 95 c1 3c ad 78 f1 3c 19 3a 01 3d
       -0.0018254116 0.023630843 0.029476488 0.031549547
0002d0 bd b7 4f 3d 92 0c 83 3c 0e c4 e0 bc 89 ce 60 bc
       0.050712336 0.015997205 -0.027437236 -0.013721117
0002e0 4e 12 15 bd 35 b5 27 3d f2 70 db 3c 8f 3b 31 3d
       -0.03639441 0.040944297 0.026787255 0.04326969
0002f0 be 10 95 3b 4a 46 75 bd 04 55 21 bd 21 89 97 bd
       0.004549115 -0.059881486 -0.039387718 -0.07399202
000300 57 ec 6a bc 21 66 b0 3c c8 8e eb 3c c3 e2 0b 3d
       -0.014338574 0.021533074 0.028754607 0.034151804
000310 f1 6f b8 bc cf 8a 42 bd 3a 65 2c bd 0a 36 42 bd
       -0.022514315 -0.04749566 -0.042088725 -0.047414817
000320 7d 3e 06 3c d1 d3 b4 bc 00 06 38 bd 3d e1 e7 bc
       0.008193609 -0.022073658 -0.044927597 -0.028305644
000330 ef e4 da bc ed 22 d8 3c 37 59 b4 3c 80 59 8b 3c
       -0.026720492 0.026383841 0.022015197 0.01701045
000340 37 58 2c bc b4 e5 f7 bb b9 c5 e5 3c f2 9d e6 3a
       -0.010519079 -0.0075652245 0.028048383 0.0017594679
000350 4d 06 87 3d e7 7f 1d 3c b2 c4 19 3d 63 c6 15 3d
       0.06592999 0.009613014 0.0375411 0.03656615
000360 fb 4d 47 bc 3b f9 de 3c 21 78 91 3d 72 b8 a3 3d
       -0.012164588 0.027218452 0.07102991 0.079941645
000370 9d f4 74 3d 29 13 5b 3d 18 00 01 3d 0c 9f e7 3c
       0.059803594 0.05348507 0.03149423 0.028274082
000380 ac 27 9d 3b 55 c5 a4 3c 25 ff 22 3d 4b a2 7d 3c
       0.004795989 0.020113626 0.039794106 0.015480588
000390 52 a2 94 3d ab 9d c7 3d 70 e3 b2 3d e9 bf 24 bd
       0.07257523 0.0974687 0.087347865 -0.040222082
0003a0 33 f3 3a bd b1 9e ee 3c 9a 77 c1 3b 6e d8 01 3d
       -0.04564209 0.029128404 0.00590415 0.031700544
0003b0 23 0d 9e 3d 38 14 93 3d f8 59 59 bc d9 d4 3b bc
       0.077173494 0.07181591 -0.013266079 -0.011464321
0003c0 0c b0 f2 bb 80 2c 82 3c f2 a2 6b bc ed 3b 1d 3d
       -0.0074062403 0.01589036 -0.014382111 0.038387228
0003d0 b5 47 42 3d 6b 07 b0 3c 8e 55 82 bc 30 9d 1c 3d
       0.047431666 0.021487912 -0.015909936 0.038235843
0003e0 54 3b 5d 3d 68 9e b3 3c 39 3b 89 bc 25 68 23 3c
       0.054011658 0.02192612 -0.016751872 0.00997356
0003f0 15 f6 4a bc 24 4f 05 bd cf 3f 07 bc 42 0b 74 3d
       -0.012387772 -0.032546178 -0.008254959 0.05958105

conv2.bias f4 [12]
000000 eb e1 a3 bd ee a0 11 be 7f 46 de bd 70 23 3d bd
       -0.08002075 -0.14221546 -0.1085329 -0.046176374
000010 aa 47 a7 bd 66 39 ae 3c 4a f0 35 bd 76 00 f8 bc
       -0.08167966 0.021267604 -0.04441861 -0.030273657
000020 10 cb b0 bd ac 80 15 be 84 53 e8 bc b3 74 0e bd
       -0.08632481 -0.14599866 -0.028360136 -0.03477926

bn2.weight f4 [12]
000000 a6 a8 79 3f 7e 8e 64 3f bc 12 93 3f df 23 85 3f
       0.9752296 0.89279926 1.1490092 1.0401572
000010 ab 97 70 3f 52 36 78 3f 04 0a 6a 3f cf 82 67 3f
       0.93981427 0.96957886 0.9142153 0.90433973
000020 a0 05 85 3f f0 dd 75 3f ce aa 6a 3f 71 e1 66 3f
       1.0392342 0.96041775 0.9166688 0.90187746

bn2.bias f4 [12]
000000 7d 1c 4b bd 31 c2 0a be a6 f8 94 bd 6d 50 b5 bd
       -0.049587715 -0.1355064 -0.072739884 -0.088532306
000010 0f 77 83 bd bd 2c 07 3d d2 3f 8d bd 64 d7 a2 bd
       -0.06419193 0.03300165 -0.068969384 -0.07951239
000020 8a 67 0a be c1 23 e1 bd a4 9e a3 bd b2 15 b2 bd
       -0.1351606 -0.10993148 -0.07989243 -0.08695544

bn2.running_mean f4 [12]
000000 82 3b 30 40 9a 4b 9c be ec 39 2a be b5 c6 3c bf
       2.753632 -0.3052643 -0.16623658 -0.737407
000010 16 eb ad 3d b2 08 d0 3e c6 dd 38 3d 0d 87 c3 3e
       0.08492105 0.40631634 0.045133375 0.38188973
000020 fb 5e 9e bf 8c d9 a3 bf 38 d9 04 40 a2 38 bd 3e
       -1.2372736 -1.2800765 2.075758 0.3695727

bn2.running_var f4 [12]
000000 63 bb 91 40 27 cf ca 3f b7 d8 bd 3f 25 47 8e 3f
       4.5541244 1.5844468 1.4831761 1.1115462
000010 cb 32 f8 40 af 28 1a 3f 57 4e be 40 ea de ce 40
       7.7562003 0.6021833 5.947063 6.464711
000020 df a1 0c 40 3f 76 af 3f cb 1a 58 40 31 f0 01 40
       2.1973798 1.3707961 3.3766353 2.0302851

conv4.weight f4 [12, 12, 7, 7]
000000 46 7d 66 bd 52 12 08 be 35 af f9 bd ef 3f 62 bd
       -0.056271814 -0.13288239 -0.12191621 -0.055236753
000010 e9 d2 04 3d 94 78 b8 3d 96 5f db 3d 35 05 9f bc
       0.032427702 0.090073735 0.10711591 -0.019411663
000020 c7 e7 e7 bd ba 60 0e be e7 0e 78 bd 79 af 42 3c
       -0.11323505 -0.13904086 -0.060561087 0.011882656
000030 ad e9 29 3c 4f 8c 07 3e 15 8a 0d bd 42 44 a2 bc
       0.010370654 0.13237117 -0.034555513 -0.019807938
000040 a9 fd 7a bd 58 11 1b 3d a8 80 9f 3d 06 75 a9 3d
       -0.061277065 0.037858337 0.07788211 0.082742736
000050 c0 2c 12 3e 26 e5 c4 bd 7a cc d7 bd 1f 2d 5e bd
       0.14274883 -0.09614019 -0.10537048 -0.05424225
000060 1d 66 13 bd 04 3d 83 3d 09 50 85 3c 2e 59 fc 3d
       -0.035986055 0.06408122 0.016273515 0.12321697
000070 bd 1b 96 bd 3f ba f3 bc 30 84 8d bd dd a5 8a 3c
       -0.073295094 -0.029751895 -0.069099784 0.016924793
000080 c2 e2 2e 3d ff 62 8f 3d 0f 8d d7 3d 8e aa c3 bd
       0.04269672 0.07001304 0.10524952 -0.09554015
000090 0c 4f 86 bc 21 56 ac bc 01 0e 9d bb c9 69 93 3d
       -0.016395114 -0.021037163 -0.004792929 0.07197911
0000a0 78 44 ba 3d 3e ac de 3d 91 14 37 bd 89 30 63 bc
       0.09095091 0.10872696 -0.044697348 -0.013866552
0000b0 96 27 8d bc 0f bc 3e 3d 1d 0a dd 3d 19 c6 56 3d
       -0.01723079 0.046566065 0.107929446 0.052435014
0000c0 be 03 b2 3d f0 68 99 bd 2d a7 b7 bd ed 28 87 bd
       0.0869212 -0.07490718 -0.08967433 -0.06599603
0000d0 de dd 4d 3d 3d b3 a1 3c c1 aa 2d 3d 78 76 bb bc
       0.050260417 0.019738788 0.04239917 -0.022883639
0000e0 3d 99 8e bd d3 dc 6a bc bd 57 b4 bd ce b2 3f 3b
       -0.06962822 -0.014334875 -0.08805797 0.0029250863
0000f0 54 4a 9e 3c 28 a2 cf 3c 3e 2a 42 bd c1 2b c3 bd
       0.019322552 0.025345877 -0.047403567 -0.0952983
000100 29 eb 60 bc bd 4e 83 bd b6 2d 30 3d e3 44 41 3d
       -0.013727942 -0.064115025 0.043012343 0.047184836
000110 13 2e 13 3b 1c 30 f0 bc e3 f9 8e bd ad 91 07 be
       0.0022457882 -0.029319815 -0.06981256 -0.13239165
000120 8f 2b 04 bd 80 7e 8c 3d e6 c2 80 bc 91 15 43 bc
       -0.032268103 0.068600655 -0.015717935 -0.011906997
000130 21 a9 2a 3b 52 2d 35 bd 51 f4 34 bd 35 e1 de bc
       0.002604075 -0.044232674 -0.04417831 -0.027206996
000140 f9 0c 99 3c 52 d9 06 3d 48 6a 91 3c ed 9a 26 bc
       0.018682944 0.032922097 0.017750874 -0.010168773
000150 92 13 6c bc ff 36 94 3c 91 d3 b0 bc cb 2c 4b 3d
       -0.014408963 0.01809263 -0.021585258 0.049603265
000160 57 2a 77 3b 20 de 0c 3d 4e 15 f5 3c 3b c8 37 bd
       0.0037714445 0.034391522 0.029917385 -0.04486869
000170 ef 0e 87 3b 91 b8 29 3d 9c 88 9c 3d 22 48 c8 3c
       0.0041216533 0.041435782 0.07643244 0.024448458
000180 28 5c bb bb 7b c5 3a 3c f6 aa 1d 3b 3f 43 0b 3d
       -0.005717773 0.011399622 0.00240582 0.033999678
000190 68 a5 37 bd e8 10 2c 3d fe ff 16 3d d4 42 86 3d
       -0.044835478 0.04200831 0.036865227 0.06555715
0001a0 d4 62 a3 3d 0a aa 1d bd da 60 82 bc 77 2e b0 bd
       0.07977834 -0.03849224 -0.015915323 -0.086026125
0001b0 1d 87 59 3d c9 fc 38 bc d9 fa 97 3d 61 39 6c 3d
       0.05310737 -0.011290737 0.07420892 0.05767191
0001c0 1f 0f 0c bc 48 1b 43 bd ca 96 0f bd bb 25 84 3d
       -0.008548527 -0.04763344 -0.035055913 0.06452509
0001d0 57 32 39 bc 92 25 bf 3c 9e c2 30 3d 9b d3 b5 bd
       -0.011303506 0.023333345 0.04315435 -0.08878251
0001e0 2d f1 d3 bd bb f8 00 bc 88 d6 4a 3d 75 24 27 3d
       -0.10348735 -0.007871802 0.049521 0.040806253
0001f0 00 1d 21 3c 22 e4 57 3d 98 11 b4 bd be 30 89 bd
       0.009833574 0.0527078 -0.08792418 -0.0669875
000200 81 f6 9f 3c 4b 81 6f bb a3 0d 33 bc 37 f5 8a 3c
       0.019526722 -0.003654557 -0.010928544 0.01696263
000210 fe fe 7c bc 8a 1c e0 bc 0c 82 d2 3b df 6c bb bc
       -0.015441654 -0.027357358 0.006424194 -0.022879062
000220 03 f2 13 bb 53 17 65 3c 6b 17 11 bb a6 50 0d 3d
       -0.002257467 0.013982612 -0.0022139202 0.03450074
000230 a1 b4 35 bd 7e 11 d8 bc de fe 04 bb a2 fc 9a 3d
       -0.044361714 -0.026375528 -0.0020293514 0.07567717
000240 72 c3 5d 3d 96 ba 37 bd b7 24 c6 3c c0 f8 82 3e
       0.05414147 -0.044855677 0.024187429 0.25580406
000250 66 7f a7 3d 60 b9 51 3c 51 98 b1 bd 6a 19 19 bd
       0.08178596 0.0128005445 -0.0867163 -0.037377752
000260 96 6b da bd 89 6e 2f 3d 91 cc 27 3e a7 1e 00 bc
       -0.10665052 0.042830024 0.1638663 -0.007819808
000270 a2 d0 05 bd 44 13 8a bd 72 03 9f bc 9a 4d 4a bd
       -0.03266967 -0.06741956 -0.019410823 -0.049390413
000280 e9 37 a1 bd fd e4 06 3e f0 3c 23 bd a9 36 78 bd
       -0.07871992 0.1317329 -0.039853036 -0.060599003
000290 3d e9 0b bc b8 e7 da bd 98 cc 09 be fd d9 c2 bd
       -0.008539495 -0.10688728 -0.13456953 -0.09514234
0002a0 f1 91 67 3d a1 fe d6 bd 09 4f 09 bd bf 7b 80 bd
       0.056535665 -0.10497785 -0.03352264 -0.06273603
0002b0 18 35 bc bd 10 61 3a be 22 4d fb bd 9b cb 1e 3d
       -0.09189814 -0.18201089 -0.12270571 0.038768392
0002c0 b4 d9 1e bd 5f 18 8f bd 62 c0 bb bd 3c 5e eb bd
       -0.038781837 -0.0698707 -0.091675535 -0.11492583
0002d0 c0 96 b4 bd 83 7e 56 bd a9 90 97 bd 0c 93 f5 bd
       -0.08817816 -0.052366745 -0.074006386 -0.119909376
0002e0 9a 95 a2 bd 46 ea 27 be 8a 9d 1f be 09 56 66 bd
       -0.079386905 -0.16397962 -0.1558744 -0.056234393
0002f0 15 b1 6e bd 2a 00 83 3c 56 02 db bd 1f f2 3d be
       -0.058274347 0.01599129 -0.10693805 -0.18549393
000300 a3 a9 05 be ed 79 98 bd 7d 42 96 3c cf 30 2e bc
       -0.13052993 -0.074451305 0.018342251 -0.010631754
000310 84 42 5c 3d b4 14 46 bd 66 d0 f8 bb ed 03 24 bd
       0.05377437 -0.048359588 -0.0075932024 -0.040042806
000320 a9 a0 24 bd 10 cb c0 3c 8f 32 5d 3d 98 4a 5d bc
       -0.04019228 0.023534328 0.054003295 -0.013506554
000330 2e 3b cc bb 7a 2e 3a bd 56 90 7d bd 73 20 5d bd
       -0.0062326407 -0.04545448 -0.061905228 -0.053986024
000340 fb bc 00 bd e4 b9 02 3d 11 0f e4 bc 7f 66 69 bd
       -0.031430226 0.03191556 -0.027839215 -0.056982514
000350 4c 56 d6 3c 15 b3 f3 3c 28 14 ab bc 03 1f 27 bd
       0.026164196 0.029748479 -0.020883635 -0.04080106
000360 2f 88 51 3d 33 e6 52 bd 84 34 45 bd 76 51 83 bd
       0.051155265 -0.051489066 -0.048145786 -0.06412022
000370 8c 4e 6e bd 85 42 15 bd 39 85 03 bd 42 04 8e 3d
       -0.058180377 -0.03644039 -0.032109473 0.06934406
000380 19 a1 b4 bd b6 ac 43 bc f6 f7 6a bd 45 89 bf bc
       -0.088197894 -0.011943033 -0.05736538 -0.023380885
000390 95 7b e2 bc 94 44 44 b7 4c cf dc 3d 32 e1 88 bd
       -0.02764682 -1.16984775e-05 0.10781726 -0.066835776
0003a0 f3 21 a0 bb 60 71 d2 bc b5 be de bb 70 62 a9 bc
       -0.0048868596 -0.025688827 -0.0067976364 -0.020676821
0003b0 05 55 3c 3d 95 7d c8 3d 50 2c 81 bb 42 84 d2 bb
       0.04597952 0.09789578 -0.00394205 -0.0064244578
0003c0 63 aa 34 bd 70 2b 8b bb 91 20 f7 3c 6c 95 c6 3d
       -0.044107806 -0.0042471215 0.030166896 0.09696469
0003d0 c1 72 f2 3d bb b1 6d 3e 90 a9 7e 3d 29 03 27 bd
       0.11838294 0.2321233 0.062173426 -0.040774498
0003e0 40 9a 36 bd 9d 28 9d bd d7 cc d5 bd 47 4e d4 3c
       -0.044580698 -0.07673762 -0.10439461 0.025916232
0003f0 cd 14 16 3e e0 8c c1 bc e6 89 75 bd d4 b7 e6 bc
       0.14656372 -0.023626745 -0.059945963 -0.028163828

conv4.bias f4 [12]
000000 7b 75 fd bb 3b 6b 3a bd fe 35 b5 3c 74 f4 bb 3a
       -0.007734952 -0.04551242 0.022120472 0.001433982
000010 0e 82 be bd 40 39 3e bd 7a b6 52 bd 31 d9 1b 3c
       -0.0930215 -0.046441317 -0.051443554 0.009512232
000020 af e1 12 3d 2d c2 65 bc 06 3b 12 bd c9 04 20 3b
       0.03585976 -0.014023346 -0.03570082 0.0024416915

bn4.weight f4 [12]
000000 e2 7f 7b 3f 40 4f 73 3f 6c 36 82 3f f1 2a 84 3f
       0.9824201 0.950428 1.0172858 1.0325605
000010 b1 62 7b 3f 26 46 7a 3f 6c 31 7a 3f eb 89 76 3f
       0.98197466 0.9776329 0.9773166 0.96304196
000020 20 1c 80 3f 19 2a 7a 3f f9 bb 7e 3f f5 a2 77 3f
       1.0008583 0.97720486 0.99505574 0.9673303

bn4.bias f4 [12]
000000 e9 7e d4 3c 99 60 95 bd 29 41 24 bc 7c c0 07 3d
       0.025939422 -0.07293815 -0.010025301 0.03314255
000010 1a 3e 92 bd 21 2d 9d bd 23 7a 69 bd 99 bd 49 3d
       -0.07140751 -0.07674623 -0.057001244 0.04925308
000020 c9 2f 13 3d 80 4d 54 3b 17 95 46 3c 8f 88 58 bd
       0.035934243 0.0032394826 0.012120507 -0.052864607

bn4.running_mean f4 [12]
000000 f1 f3 15 c0 68 72 0f c0 f6 14 0e c0 57 b0 6a be
       -2.343014 -2.2413578 -2.2200294 -0.22918831
000010 09 fa 8c 3f af 42 a1 bf 9d 6e 4e c0 a2 8c 12 be
       1.1013805 -1.2598475 -3.2255013 -0.1431146
000020 65 5b 3c c0 ca 49 c0 3e 2d 94 c8 be e0 03 93 bf
       -2.9430783 0.37556297 -0.3917555 -1.1485558

bn4.running_var f4 [12]
000000 ad cf 23 40 e2 a7 4f 40 87 bd 3a 40 29 df 03 40
       2.5595505 3.2446218 2.9178178 2.0604956
000010 c9 bc e9 3f 77 cd f3 3f 45 7f 54 40 e1 0a 0a 40
       1.8260738 1.9047078 3.320268 2.156914
000020 28 2b 5c 40 59 c8 f5 3f 8e 51 0d 40 3c cd f5 3f
       3.440134 1.9201766 2.2081027 1.9203258

conv5.weight f4 [12, 12, 5, 5]
000000 41 8b bc bd 7f eb 99 bc a1 4a db 3d b4 9e b4 bd
       -0.09206248 -0.018789051 0.10707594 -0.08819333
000010 15 a3 ec bd d3 86 a3 bb c2 a7 d5 bd 97 fb 2b 3d
       -0.11554543 -0.0049904375 -0.10432388 0.04198798
000020 6f 2e d4 3c a4 e3 57 bd 7b 65 4e bd 6d 5b fa bc
       0.025901048 -0.05270733 -0.050389748 -0.030561173
000030 9b 00 bc 3d b1 24 b1 3d 1f 93 92 3d 5d 27 c4 bd
       0.09179803 0.086495765 0.07156967 -0.095778205
000040 5a 3b 94 bd 6c 46 9d 3b ad 45 e7 3d 1f c1 a0 bd
       -0.07237883 0.0047996547 0.112925865 -0.07849335
000050 b0 34 1e bd 3e 6b 3b bd bc ea 4b 3c 33 95 a1 3d
       -0.038624465 -0.04575657 0.012446102 0.078897856
000060 96 e6 7b bd 3a bc 6c bc c7 e3 19 3d 98 59 01 bd
       -0.0614992 -0.014449174 0.03757074 -0.031579584
000070 5e f5 84 bd 29 57 d9 3c b9 01 aa bb f4 07 17 3d
       -0.064921126 0.026530819 -0.0051881936 0.03687282
000080 06 77 0e 3d c9 66 39 bd 5a 59 aa bd 9d c0 4b 3b
       0.03478148 -0.04526404 -0.08317824 0.0031090148
000090 ec ea 85 3d 50 9e dc 3c 82 8d eb bd c2 9d 46 bd
       0.065389484 0.026930958 -0.115016 -0.048490293
0000a0 71 4d 87 3d cc 52 cf 3d 42 e7 aa 3b 84 01 d4 bd
       0.06606568 0.10123214 0.0052155564 -0.103518516
0000b0 e6 a4 a8 bd 23 b3 bd bb 5e ea ec 3d 6b 44 b8 3c
       -0.08234577 -0.005789177 0.115681395 0.022493562
0000c0 76 70 fe bd 37 37 15 bd 68 b0 46 bd 25 59 18 bd
       -0.12423794 -0.03642961 -0.048508078 -0.03719439
0000d0 57 9a 2a bc e8 dd 01 bd c4 23 a1 bd 66 7b 57 3c
       -0.010412774 -0.031705767 -0.0786815 0.013151979
0000e0 01 6e 6b bc 3d d3 d2 bb 15 d5 05 be 22 ae f5 bd
       -0.014369489 -0.006433873 -0.13069566 -0.11996104
0000f0 ec 32 dd ba ec 51 cc 3a ff a5 f2 3c 7b 23 63 bd
       -0.0016876138 0.001558838 0.029620169 -0.05545376
000100 cb de 9f bd b8 2e d7 bc 90 28 ae 3d 11 67 a1 3d
       -0.07806166 -0.026267394 0.085038304 0.078809865
000110 75 90 07 bc db 28 de bd dc c7 96 3d f6 3d e2 3d
       -0.008274187 -0.10847636 0.07362339 0.11046974
000120 2a 51 29 bc f2 10 e7 bc b6 c5 58 bd 05 76 6c be
       -0.010334292 -0.028206322 -0.052922927 -0.23091896
000130 8d 8b 63 3d 84 7c 04 3d 91 0e 81 3c 45 64 d9 bd
       0.055553008 0.03234531 0.015754016 -0.10614828
000140 67 81 13 bd 54 62 19 bd 56 25 55 bd e9 e7 9a bb
       -0.03601208 -0.03744729 -0.05203756 -0.004727353
000150 c3 46 6b bd e3 8c 1e 3d 92 c8 cb bd ec 06 c2 bd
       -0.05744053 0.03870858 -0.09950365 -0.094739765
000160 bb b6 09 3d e6 b1 30 bc 85 5b f0 bb 79 35 60 bd
       0.03362153 -0.010784602 -0.0073351287 -0.054738495
000170 60 6f 90 bd 02 63 e3 3d 3d 0a ae 3d 95 6e d0 bc
       -0.07052493 0.111028686 0.084980465 -0.025443355
000180 07 e5 a0 bd d0 c3 ac 3d 2f 81 50 3d c8 e8 59 3e
       -0.078561835 0.08435786 0.05090445 0.21280205
000190 d5 f1 0f 3c 00 b0 2e 3c 7e ae 3f 3d ea 74 38 3d
       0.008785685 0.010662079 0.046797268 0.045033373
0001a0 fc 0d fd 3d b1 1d 4c 3d dd dd 8b 3d b5 6f 3b 3d
       0.12356183 0.049833003 0.068294264 0.04576083
0001b0 f8 1b 66 bd 90 a9 eb 3d 8d ef e0 bd c4 e1 65 bd
       -0.056179017 0.11506951 -0.10983191 -0.05612351
0001c0 8d e8 c4 bd f7 31 53 bc 7e 4a a6 3d f3 fe 81 bd
       -0.09614668 -0.0128903305 0.08119677 -0.06347456
0001d0 d1 2c 9e bd 38 09 96 bd 3b 90 c3 bc f4 02 95 3c
       -0.07723392 -0.07325977 -0.023872485 0.018189885
0001e0 f0 57 21 be d5 fb 18 be 7d 4f 52 bd ea 93 4a bd
       -0.15756202 -0.14939816 -0.051345337 -0.049457468
0001f0 78 11 a2 bc 56 7a 74 3c 54 11 aa bd c4 8b ed 3c
       -0.01978372 0.014921745 -0.08304086 0.02899731
000200 86 9e de 3d 5c b5 e3 bd 75 f4 4d bd e9 20 8a bd
       0.1087008 -0.11118576 -0.05028196 -0.06744558
000210 0a 18 8d 3d e6 d2 cc 3b 82 4f 02 3d e5 0d d3 bc
       0.06889351 0.006250727 0.031814106 -0.025763461
000220 63 97 58 bc aa 3e ac ba d3 70 ff 3d b7 8b 05 3d
       -0.013219687 -0.0013141234 0.124726914 0.032603946
000230 99 da 3e 3d ce 35 86 bd 8d 35 95 3d 2c 9b a4 3d
       0.04659519 -0.06553231 0.072856046 0.08037409
000240 1f 66 fa 3c 2b 99 03 bd 72 d5 54 bd 2a f9 c9 3d
       0.030566273 -0.032128494 -0.05196137 0.098619774
000250 d0 f9 bc 3d 51 58 3e bd ea dd c2 bd 5e 65 3c bc
       0.092273355 -0.046470944 -0.09514983 -0.011498777
000260 a0 67 2f bd 3e 9d d7 3c ef 90 23 bd 74 51 4c bd
       -0.042823434 0.026320096 -0.03993314 -0.049882367
000270 e7 b0 a1 bd 39 16 aa bd c9 95 67 bd 71 dd fe bd
       -0.078950696 -0.0830502 -0.05653933 -0.1244458
000280 f1 7a 1c 3d d9 d9 16 3d 5d 92 82 bc 0f 9c 7b bc
       0.038203184 0.03682885 -0.015938932 -0.0153570315
000290 dd 35 71 bd 3e 1c 9c 3d a8 40 eb 3d 82 7a ae 3c
       -0.05888926 0.07622574 0.114869416 0.02129865
0002a0 97 61 6d bd 25 56 6b bd d2 e4 9e 3d b7 8c f2 3d
       -0.057954397 -0.0574552 0.07758488 0.118432455
0002b0 7a 22 a6 3d cc 90 f5 bd 1d b5 25 be 15 f3 7e 3d
       0.08112045 -0.119905084 -0.1618237 0.06224354
0002c0 2e ba 4c 3d 80 d9 d1 bd 0e 15 73 bd 54 51 cf ba
       0.049982242 -0.10246563 -0.05934625 -0.0015817084
0002d0 13 97 6b bb 71 78 56 3d 09 ad a4 3c fe e0 d8 bc
       -0.0035948202 0.052360956 0.02010204 -0.026474472
0002e0 79 33 08 3d 12 bb 28 bd ba b1 a4 3c bf 82 25 bd
       0.033252213 -0.04119403 0.020104278 -0.040407892
0002f0 4f f1 92 3d 3e 56 75 bc 45 b7 b1 3d d3 47 85 3c
       0.07174932 -0.014974175 0.08677534 0.0162696
000300 26 ed 04 bd 5f 1c 73 3c 99 62 6e 3d 13 46 0a 3d
       -0.032452725 0.014838307 0.0581995 0.033758234
000310 98 e1 99 3c 57 f8 bc 3d 6c bc 95 bd 34 29 08 3d
       0.01878433 0.092270546 -0.07311329 0.03324242
000320 d8 b9 ac bc e0 5f ac 3c e2 9c 71 bd 17 34 0f be
       -0.021084711 0.02104181 -0.058987506 -0.13984714
000330 90 39 93 bd 1c 40 d6 bc 52 d4 2a 3d 8b 75 45 3d
       -0.071887136 -0.026153617 0.04170639 0.0482078
000340 75 80 d4 bd 53 87 11 be ef ca dd bc fb f9 01 3e
       -0.10376064 -0.14211778 -0.027074305 0.12693016
000350 30 36 07 3d 9d 40 ca bd 27 5d 33 be a6 d9 6d 3d
       0.03301066 -0.09875605 -0.17516004 0.058068894
000360 8a 7e cd 3d dc ed fe 3c 15 c3 b0 bd f5 d5 88 bd
       0.10033901 0.03111928 -0.08630959 -0.06681434
000370 5d 22 a0 bb 49 42 f1 3d 9d 84 4c bd 0e ef fc bd
       -0.004886909 0.11780221 -0.049931157 -0.123502836
000380 a2 d9 47 bd fb 87 58 bd 52 d2 92 3d db 35 19 bd
       -0.048791535 -0.052864056 0.07169022 -0.037404876
000390 e3 f4 74 3c 2c 00 2b bd a3 c2 c8 3d 1e 8e d1 3c
       0.014950964 -0.04174821 0.09802749 0.025580462
0003a0 56 d9 4f 3b e3 63 d9 bd 63 b9 bf bd 12 91 cb bc
       0.0031715236 -0.10614755 -0.093615316 -0.024849448
0003b0 a2 b7 00 be b3 f7 8a bd f2 ec 50 bd a3 23 cb bd
       -0.1257005 -0.06785526 -0.05100722 -0.099189065
0003c0 1e 77 41 bc a8 4f 7c 3c da fd ca 3c bf bf 53 bc
       -0.011808185 0.015399851 0.024779249 -0.012924134
0003d0 98 49 96 bd 78 b3 89 3d d3 08 a1 3c 98 f6 4a 3d
       -0.07338256 0.06723684 0.019657528 0.049551576
0003e0 e4 8b 0b 3d 02 ce 05 bd 7f 3c 75 3d 01 c1 8c 3d
       0.034068957 -0.032667167 0.059872147 0.0687275
0003f0 f7 f1 42 bd 82 a0 5c bc 35 7b 5f 3c e6 4a 29 3d
       -0.047594037 -0.013466002 0.013640215 0.041331194

conv5.bias f4 [12]
000000 3e f4 e0 39 1c 1d c8 3a 48 4e 1a bc 88 2e ce 3d
       0.00042906584 0.0015267464 -0.009418078 0.10067469
000010 6b e4 9c 3c f7 7c 19 3c c8 56 b0 bb 89 c2 97 bb
       0.019151887 0.009368173 -0.005381439 -0.0046313447
000020 4c 43 2c 3d 06 c0 26 bd 4b b6 14 3d 26 f8 e7 3b
       0.042056367 -0.04071047 0.03630666 0.007079142

bn5.weight f4 [12]
000000 77 88 7d 3f a9 09 80 3f 3a 76 5f 3f 83 d2 84 3f
       0.99036354 1.0002948 0.87289774 1.0376743
000010 bc 93 4d 3f bb 0f 8d 3f 25 aa 87 3f fb 50 74 3f
       0.8030355 1.1020426 1.0598799 0.95436066
000020 89 17 65 3f b3 a5 75 3f 91 42 7e 3f 63 76 6e 3f
       0.89489037 0.9595596 0.9932032 0.93149394

bn5.bias f4 [12]
000000 ec f4 20 bc 6f 85 33 bd 0d 1f 26 bd c2 b0 b2 3d
       -0.009824019 -0.043828424 -0.040556956 0.0872512
000010 a2 77 e1 bc f8 b6 80 bb e3 35 56 bd b4 c0 b2 bc
       -0.027522866 -0.0039280616 -0.052297484 -0.021820404
000020 7c c7 1d 3b 12 9c 81 bd 9d 26 1c bc 89 89 13 bb
       0.00240752 -0.06328596 -0.0095306905 -0.0022512397

bn5.running_mean f4 [12]
000000 de f8 97 3e e6 bb 12 3f 17 62 ff 3e 61 6c d1 3d
       0.29682058 0.5731796 0.49879524 0.1022575
000010 76 6a 27 3f 63 c1 0a bf 43 0e da be a9 f7 df 3e
       0.6539682 -0.54201335 -0.42589006 0.43743637
000020 a5 fa 2f be 82 c3 3a 3f 56 95 4c be 7c 94 de 3e
       -0.17185457 0.7295457 -0.19978842 0.4347266

bn5.running_var f4 [12]
000000 d5 c1 03 3f 43 88 62 3f 67 c2 90 3e 5b f7 2e 3f
       0.5146764 0.8848917 0.28273317 0.68346184
000010 1a 78 b0 3e e8 1c ec 3e 70 d4 fa 3e d8 10 00 3f
       0.3446663 0.46115804 0.48990202 0.500257
000020 e0 0a 0c 3f 82 01 01 3f 5f 68 03 3f 15 04 ae 3e
       0.54704094 0.50392926 0.5133113 0.3398749

conv6.weight f4 [12, 12, 5, 5]
000000 25 d3 5b bd 56 96 d4 bc 2c 08 d8 3c 4c dc d1 3c
       -0.05366816 -0.025950592 0.026371084 0.025617741
000010 f8 e7 0e 3d 54 43 c9 bc e6 2d 32 3d 4d 12 11 bd
       0.03488919 -0.024568237 0.043500803 -0.035417844
000020 e9 5f e1 bc 33 81 08 bd f6 b5 27 3d c0 9c 22 3d
       -0.027511554 -0.03332634 0.040945016 0.03970027
000030 88 54 7f bc fe 2b 48 bd 28 8b 29 3c 10 f9 b7 bb
       -0.015584119 -0.04887008 0.010348119 -0.0056144074
000040 0c 35 86 3c b6 d8 8b bc 86 78 2e bd 16 9b 0d bd
       0.016382717 -0.01707111 -0.04259541 -0.03457173
000050 76 5b 25 3d fe 57 d4 bc 2a e4 4e 3d 5c cf b5 3c
       0.040370427 -0.025920864 0.050510563 0.022193603
000060 a2 a0 1a bd ee 62 1d bd 20 ec 6a bc a8 db 55 bd
       -0.037750848 -0.038424425 -0.014338523 -0.052211434
000070 e0 7a 74 3c 52 1c 2a bd 3b cf 55 bd 20 51 58 3d
       0.014921874 -0.041530915 -0.052199584 0.05281174
000080 97 be 5c bd cf 27 65 bd 20 3e 51 bb 70 03 d5 bb
       -0.0538927 -0.055946168 -0.0031927899 -0.006500654
000090 85 9d 0a bd d4 fb a6 3c 04 3f 3f 3d 6e a5 2c 3d
       -0.03384163 0.020383753 0.046690956 0.042149954
0000a0 88 36 f1 3c 54 87 80 3c 08 cf 36 bd 12 39 6a bd
       0.029444948 0.01568953 -0.044631034 -0.057183333
0000b0 8c ca ee 3c 18 a1 e6 3c 46 e7 50 3d 00 69 3a 3d
       0.029149316 0.028152987 0.05100181 0.045510292
0000c0 47 19 52 bd 28 2b 3e 3c c6 88 43 bd a0 c9 1d bb
       -0.051293638 0.011606969 -0.04773786 -0.0024076477
0000d0 98 80 67 3c 00 db f3 3c a8 4a 51 3d 68 cf c9 bc
       0.01412978 0.029767513 0.05109659 -0.024635032
0000e0 36 f1 4e 3d 42 4a 61 3d fc 75 e7 3c 36 56 40 3d
       0.050523005 0.05500246 0.028254502 0.046957217
0000f0 4c 0b a5 bc da ce 20 3d 34 40 33 bc 28 88 64 3d
       -0.020146988 0.03925977 -0.0109406 0.05579391
000100 98 8a fe bb fa 90 cb bc b9 78 3e bd 34 2f 26 bd
       -0.0077679865 -0.024849404 -0.04650185 -0.04057236
000110 82 9f 16 3d 38 9a 64 3d d2 25 52 3d 90 9d 5b bc
       0.036773212 0.055811137 0.0513056 -0.013404265
000120 a8 08 12 bd 80 40 d2 3c 10 07 01 bd 28 de 43 3d
       -0.035652786 0.025665522 -0.031500876 0.047819287
000130 a8 87 28 3d 20 d5 7b 3b 3c 12 4b 3d 2c e2 ae 3c
       0.041144997 0.0038426593 0.049577937 0.021348082
000140 14 44 cc 3c c2 db 24 3d 06 c9 51 3d 52 1d 21 bd
       0.024934806 0.04024864 0.0512171 -0.039334603
000150 0c 25 f0 3c 42 b1 bf bc 61 a0 da bc e0 5b 73 bb
       0.02931454 -0.023399953 -0.026687803 -0.003713362
000160 4e f9 5c 3d e8 26 34 3d 80 31 b3 3b ea 41 11 3d
       0.053948693 0.043982416 0.0054685473 0.03546325
000170 80 2f 93 ba d4 2e 34 bc 60 9b 84 3c 16 37 1b bd
       -0.0011229366 -0.010997493 0.01618737 -0.03789433
000180 4a 0c 1a bd b0 fd 59 3c b7 4c f9 bc 3c fe 6e bc
       -0.037609376 0.013305113 -0.030432088 -0.014586981
000190 e5 cf f7 bc 18 64 83 bb 20 b9 ce 3a 92 bb 8f bc
       -0.030250499 -0.004009735 0.0015771724 -0.017545495
0001a0 26 13 d8 bc 60 c2 b8 3c 5c ce 3e bd c0 54 c5 3c
       -0.026376318 0.022553623 -0.04658352 0.024088264
0001b0 45 7a 5d bd 48 c0 69 bd 58 6b 05 bc 58 e4 b3 bb
       -0.054071683 -0.05706814 -0.0081432685 -0.005489867
0001c0 30 34 cb 3b e3 fd 37 bd 64 8c 53 3d b0 59 d7 3b
       0.0062012896 -0.04491986 0.05164756 0.006571971
0001d0 01 22 41 bd b0 30 fa 3b 91 bf 56 bd b3 9c 1d bd
       -0.04715157 0.0076351985 -0.052428786 -0.03847952
0001e0 f7 39 16 bd a0 16 46 3b 38 e8 a2 bb 80 b6 39 3c
       -0.036676373 0.0030225888 -0.0049715303 0.011335015
0001f0 80 7a e7 39 00 1f e8 ba de 9a 6a 3d a0 f6 2e bd
       0.00044151023 -0.0017709434 0.0572766 -0.04271567
000200 cc b2 58 3d 91 20 5f bd f0 b8 52 3c 00 3f 4e bd
       0.05290489 -0.054474417 0.012861475 -0.05035305
000210 00 be d7 b9 dc 51 e9 bc aa a2 c4 bc 24 77 9a 3c
       -0.00041149557 -0.028481416 -0.024003346 0.018855639
000220 9f 90 33 bd 7c d3 02 bd a8 de 2b bc 78 d0 80 bb
       -0.043839093 -0.03193997 -0.010490097 -0.0039311014
000230 e0 3b ac 3c e8 f3 57 3c 28 44 47 3c ec 58 c5 bc
       0.021024644 0.01318071 0.012162246 -0.024090253
000240 fc b4 13 3d a0 c2 3f bc e8 e1 53 3d 74 5c df 3c
       0.036061272 -0.011704117 0.051729113 0.027265765
000250 88 47 18 bc 66 74 30 bd c0 64 b5 bb e0 3b 39 bd
       -0.009294398 -0.043079756 -0.005535692 -0.045223117
000260 a0 d7 5e 3d 50 70 b4 3c f4 06 e2 bc 58 18 73 3c
       0.054404855 0.022026211 -0.027591206 0.014837347
000270 6c c4 1a bd c6 ee 64 3d 44 6a 3d 3d 2d b3 4c bd
       -0.03778498 0.055891775 0.04624392 -0.049975563
000280 28 ac e4 3c 60 85 10 3d e8 aa 5d bd c8 82 5a bc
       0.027914122 0.035283446 -0.054118067 -0.013336845
000290 fa 50 c2 bc 48 56 cf bb 78 85 6c 3c 88 12 e9 3c
       -0.023720253 -0.006327424 0.014436118 0.02845122
0002a0 f8 3f 77 3c c2 99 1e bd 5e 23 16 3d 30 29 be 3c
       0.015090935 -0.038720854 0.036654823 0.023213
0002b0 9c 08 31 bc c4 b3 bb bc 48 e5 4f 3c 3e d1 4c 3d
       -0.010805275 -0.022912867 0.012688942 0.050004236
0002c0 64 3d 5d bd e0 40 ac bc 42 9d 3d 3d 15 a1 5e bd
       -0.054013625 -0.021027029 0.04629255 -0.05435284
0002d0 50 db 5b bc da 12 2b 3d a2 72 12 3d 04 57 28 bc
       -0.013418987 0.041766025 0.035753854 -0.010274652
0002e0 91 85 6b bd 58 5f 02 bd 30 40 c1 bc e0 51 9d 3c
       -0.057500426 -0.031829208 -0.023590177 0.01920408
0002f0 a8 98 8c 3c 58 29 b1 3c 9c 8a 0d bd 8e f2 d7 bc
       0.017162636 0.02162616 -0.034556016 -0.026360776
000300 d9 02 3a bd bc 53 13 3d 80 1c 5e 3c 18 39 e5 3c
       -0.045412872 0.035968527 0.0135566 0.027981326
000310 38 2d 8c bc d0 4f 6b bb 2c d9 62 bd c0 0b 7f 3c
       -0.017111406 -0.0035905726 -0.055382892 0.015566766
000320 0f d3 2c bd be c6 32 3d 68 2e 3d 3d 1d b6 3d bd
       -0.04219347 0.043646567 0.046186835 -0.046316255
000330 2c c6 05 3d 70 42 f5 bb dd ca 03 bd fc cb a9 3c
       0.032659695 -0.0074847266 -0.032175887 0.02072715
000340 54 cf c7 3c 60 b7 46 bb c0 95 e8 3c 16 b9 30 3d
       0.024390854 -0.0030321702 0.028391719 0.04314526
000350 2a 03 16 3d 28 d9 33 3c fb 2b 13 bd d2 20 3f 3d
       0.03662411 0.010977067 -0.035930615 0.04666216
000360 37 2f 4c bd b8 5a 83 bb 2c 3f 19 bd 74 49 81 bc
       -0.049849715 -0.0040086173 -0.03741376 -0.015782095
000370 2e 62 68 3d ac 99 df 3c a8 95 0e 3c e6 72 4b 3d
       0.056734256 0.027294956 0.008702673 0.049670123
000380 44 ed 9a bc c0 d9 c3 3b ac b0 02 bc 06 0a 27 bd
       -0.018911965 0.0059768856 -0.007976692 -0.040781043
000390 82 f2 32 3d b8 83 40 3d 30 d5 a2 3b 06 8b 41 bd
       0.043688305 0.047000617 0.0049692616 -0.047251724
0003a0 90 74 08 3c b8 9a c2 bc 00 54 10 3c f0 d6 7c bc
       0.008328572 -0.023755416 0.00880909 -0.0154321045
0003b0 8c d6 d0 bc 8c 30 c6 bc 60 5c 64 3d 40 9f 54 bc
       -0.025492929 -0.02419307 0.05575216 -0.012977421
0003c0 d3 95 0b bd ea 44 13 bd f8 e9 ab 3c 24 84 52 3d
       -0.03407843 -0.035954393 0.020985588 0.05139555
0003d0 f2 6b 15 3d 8d b0 64 bd 30 06 62 bb bc b0 25 bd
       0.036479898 -0.055832434 -0.0034488551 -0.04045175
0003e0 38 13 e3 bc 80 17 6c 3d 96 a4 02 bd 04 5d 1e 3d
       -0.027719125 0.0576396 -0.031895243 0.038662925
0003f0 74 ad f3 3c c4 86 b4 3c f0 78 61 bd 23 f4 5c bd
       0.029745795 0.022036918 -0.055046976 -0.053943764

conv6.bias f4 [12]
000000 c8 8a 3e bd ff 83 09 bd c5 20 69 bd 00 f8 be b9
       -0.04651907 -0.033573147 -0.056916017 -0.00036424398
000010 e2 90 57 3d cc 7f bc 3c 9e d5 33 3d 76 ac 28 3d
       0.052628405 0.023010157 0.043904893 0.041180097
000020 38 cb 71 3c 20 cb 12 3b 78 33 48 3d 8f e6 e7 bc
       0.014757924 0.0022398904 0.04887721 -0.028308181

bn6.weight f4 [12]
000000 00 00 80 3f 00 00 80 3f 00 00 80 3f 00 00 80 3f
       1.0 1.0 1.0 1.0
000010 00 00 80 3f 00 00 80 3f 00 00 80 3f 00 00 80 3f
       1.0 1.0 1.0 1.0
000020 00 00 80 3f 00 00 80 3f 00 00 80 3f 00 00 80 3f
       1.0 1.0 1.0 1.0

bn6.bias f4 [12]
000000 00 00 00 00 00 00 00 00 00 00 00 00 00 00 00 00
       0.0 0.0 0.0 0.0
000010 00 00 00 00 00 00 00 00 00 00 00 00 00 00 00 00
       0.0 0.0 0.0 0.0
000020 00 00 00 00 00 00 00 00 00 00 00 00 00 00 00 00
       0.0 0.0 0.0 0.0

bn6.running_mean f4 [12]
000000 00 00 00 00 00 00 00 00 00 00 00 00 00 00 00 00
       0.0 0.0 0.0 0.0
000010 00 00 00 00 00 00 00 00 00 00 00 00 00 00 00 00
       0.0 0.0 0.0 0.0
000020 00 00 00 00 00 00 00 00 00 00 00 00 00 00 00 00
       0.0 0.0 0.0 0.0

bn6.running_var f4 [12]
000000 00 00 80 3f 00 00 80 3f 00 00 80 3f 00 00 80 3f
       1.0 1.0 1.0 1.0
000010 00 00 80 3f 00 00 80 3f 00 00 80 3f 00 00 80 3f
       1.0 1.0 1.0 1.0
000020 00 00 80 3f 00 00 80 3f 00 00 80 3f 00 00 80 3f
       1.0 1.0 1.0 1.0
